MR_01c_res3_l1.pth (torch, 663025 bytes, 22 tensors)

conv0.weight f4 [12, 3, 32, 32]
0.009741469 -0.010281643 0.004164307 0.0020211753 0.01626304 0.00026492935 0.0051397826 -0.012424804
-0.00662667 0.014203424 -0.008261821 -0.0021736275 -0.00051247294 -0.0050748526 -0.00807488 0.005274327
0.012544951 0.017440677 -0.0008693174 0.00013416579 0.009682854 -0.0046066516 0.012454281 -0.0048942175
-0.01297042 -0.00020148733 -0.010354964 0.006673555 -0.00598767 0.009433113 -0.022094894 -0.024517044
-0.0033371756 -0.009128759 -0.012412499 -0.019942902 -0.014189091 -0.015377625 0.0044946657 0.008394461
-0.0019911204 0.01264125 0.0059701367 0.0035789118 0.012250281 0.010758064 0.0105428165 0.008585472
0.0069086915 0.006377015 -0.005317633 -0.014198877 -0.0017258676 0.0045463657 0.015962012 -0.005862659
0.009104038 0.008325696 -0.0011755864 0.0053531593 -0.013790704 -0.025378477 -0.01346403 0.0018678544
0.0071353605 -0.0069413744 0.020107148 -0.0028355913 0.0074595287 0.0012454616 0.0021118154 0.016258674
0.0075196167 0.012811756 -0.0016076029 0.015940944 0.02631894 0.01887357 0.007185466 0.007152386
0.00644259 -0.012028687 -0.009501219 0.026868282 0.007269723 0.028771255 0.02096643 0.022207534
0.018088523 0.011541513 0.0064484323 -0.006654312 0.012731459 0.013162871 -0.003402559 -0.007164865
-0.0062756357 0.0034564487 -0.014117637 0.014202443 -0.007155159 -0.008767069 0.01940806 0.012567586
0.012840293 0.010026392 0.007954582 0.005548915 0.016892985 0.013327595 0.008291456 0.00013397734
-0.007525219 0.013885037 0.0004970609 0.014037833 0.018035792 0.024479402 0.015257195 -0.00058673206
0.010573115 -0.011406813 0.00046976228 -0.004609976 0.01393107 0.004030636 -0.0011020185 -0.011176728
-0.0024854064 0.0028023217 0.008362571 0.022180945 0.02218096 0.010832877 0.008875195 0.020780776
-0.005798779 0.011627525 0.010333105 0.0026892237 -0.007004459 -0.009678384 -0.019625345 -0.035313793
-0.027207946 -0.013898619 -0.010163777 0.01453177 0.0039029631 0.0015140438 0.003486615 -0.007633859
0.00803938 0.015578142 0.014696929 -0.00129303 0.032299917 -0.0036889333 0.0022206816 -0.0047087674
0.011663262 0.018434472 0.0030417773 0.015626162 -0.016953211 -0.011420882 0.013024442 0.015536545
0.008946674 0.004692539 -0.013523661 -0.008575981 -0.008494242 -0.020069506 -0.028993536 -0.016790729
-0.033717193 -0.022756375 -0.007899942 -0.0010145777 0.01031973 0.009281499 -0.010586599 0.007168678
0.015658505 0.02892987 0.020827187 0.02913169 0.047554955 0.00839991 0.030050643 0.013990492
0.0016047753 -0.00974008 -0.0037365665 0.02476731 -0.0041966103 0.0046420014 0.013702778 0.010051017
0.009903619 0.019511145 0.0140104415 0.010889127 -0.01807884 -0.014391305 -0.042973436 -0.0352781
-0.033091214 -0.029694589 -0.00084889546 0.015974581 0.024959102 0.02857959 0.00023966744 0.004941075
0.0015432151 0.009488672 0.020036792 0.05253467 0.028733198 0.028186977 0.007873325 -0.010410013
0.0075265705 0.005118287 0.00923919 0.0067261844 0.014614627 0.009898001 -0.008012607 0.012730786
0.010942764 -0.0035027978 -0.0028649173 -0.008765243 -0.012517916 -0.020880537 -0.032512773 -0.03899473
-0.036901176 -0.023003086 0.009283049 0.01930347 -0.0034586273 0.015624386 -0.01321455 0.002675463
0.021456394 0.022237157 0.028180007 0.021399938 0.028984942 0.03451052 0.023982072 0.0120594045
00000000: af9a 1f3c 5674 28bc bd74 883b b275 043b
00000010: 113a 853c 37e6 8a39 9f6b a83b 6891 4bbc
00000020: 8924 d9bb 7ab5 683c 975c 07bc 6b73 0ebb
00000030: 7a57 06ba f34a a6bb 804c 04bc 43d4 ac3b
00000040: 5789 4d3c c0df 8e3c e7e2 63ba dbae 0c39
00000050: d5a4 1e3c 65f3 96bb 0a0d 4c3c ac5f a0bb
00000060: e281 54bc 5846 53b9 dea7 29bc d6ad da3b
00000070: 3734 c4bb 588d 1a3c 5a00 b5bc f8d7 c8bc
00000080: 84b4 5abb ca90 15bc cb5d 4bbc 4c5f a3bc
00000090: 5c79 68bc 6ff2 7bbc fd47 933b ec88 093c
000000a0: 757d 02bb 3f1d 4f3c 23a1 c33b 2d8c 6a3b
000000b0: 67b5 483c 9742 303c c7bb 2c3c 14aa 0c3c
000000c0: 4e62 e23b 47f6 d03b 8a3f aebb 68a2 68bc
000000d0: 8236 e2ba aef9 943b c4c2 823c 8c1b c0bb
000000e0: 1a29 153c 8068 083c 2216 9aba 8e69 af3b
000000f0: 68f2 61bc 86e6 cfbc 3c98 5cbc cbd2 f43a
00000100: becf e93b 7874 e3bb bfb7 a43c 54d5 39bb
00000110: 106f f43b c23e a33a 6266 0a3b e930 853c
00000120: 1e67 f63b 66e8 513c 34b6 d2ba 9596 823c
00000130: d19a d73c bf9c 9a3c 0f74 eb3b 905e ea3b
00000140: 5d1c d33b f813 45bc 00ab 1bbc df1a dc3c
00000150: db36 ee3b b2b1 eb3c cac1 ab3c 93ec b53c
00000160: 622e 943c 9d18 3d3c 5f4d d33b 6a0c dabb
00000170: 9c97 503c 15a9 573c 78fd 5ebb 3ec7 eabb
00000180: d9a3 cdbb 9685 623b a94d 67bc 5db1 683c
00000190: d375 eabb c1a3 0fbc a7fd 9e3c 47e8 4d3c
000001a0: 1860 523c bc45 243c ef53 023c acd3 b53b
000001b0: 2863 8a3c fc5b 5a3c e3d8 073c 457c 0c39
000001c0: 1d96 f6bb 117e 633c 314d 023a f0fe 653c
000001d0: ccbf 933c 0789 c83c 50f9 793c ecce 19ba
000001e0: dc3a 2d3c a4e3 3abc 6d4a f639 480f 97bb
000001f0: 253f 643c 6d13 843b 9b71 90ba 981e 37bc
00000200: 33e2 22bb 28a7 373b 2a03 093c d0b4 b53c
00000210: d8b4 b53c 617c 313c 4469 113c 723c aa3c
00000220: af03 bebb 6081 3e3c 2f4c 293c b03d 303b
00000230: a985 e5bb 1692 1ebc 55c5 a0bc 32a5 10bd
00000240: 33e3 debc 09b7 63bc f885 26bc a916 6e3c
00000250: dbc8 7f3b e172 c63a b17f 643b 7325 fabb
00000260: 9bb7 033c 773b 7f3c 63cb 703c e37a a9ba
00000270: eb4c 043d 08c2 71bb db88 113b 014c 9abb
00000280: 4417 3f3c e403 973c 8e58 473b 7002 803c
00000290: 76e1 8abc a71e 3bbc 7864 553c fe8c 7e3c
000002a0: 1295 123c dfc3 993b 5892 5dbc 4582 0cbc
000002b0: 6f2b 0bbc ce68 a4bc da83 edbc b68c 89bc
000002c0: 0a1b 0abd 946b babc c26e 01bc 94fb 84ba
000002d0: 1614 293c 6e11 183c 6a73 2dbc 3be7 ea3b
000002e0: 4446 803c 56fe ec3c c79d aa3c 95a5 ee3c
000002f0: fcc8 423d c79f 093c c42c f63c 6038 653c
00000300: 5357 d23a db94 1fbc 2fe1 74bb d0e4 ca3c
00000310: b883 89bb ee1b 983b 9e81 603c 05ad 243c
00000320: ca42 223c d6d5 9f3c 0d8c 653c 4f68 323c
00000330: 131a 94bc 82c9 6bbc ea04 30bd c57f 10bd
00000340: a78a 07bd 1142 f3bc 6988 5eba 20dd 823c
00000350: 0877 cc3c bf1f ea3c 3d4f 7b39 bee8 a13b
00000360: b545 ca3a 6076 1b3c 3324 a43c 982e 573d
00000370: e261 eb3c 60e8 e63c 1eff 003c c28e 2abc
00000380: 73a1 f63b 4eb7 a73b f95f 173c 5367 dc3b
00000390: 3072 6f3c 3a2b 223c 4f47 03bc c994 503c
000003a0: 4749 333c 328f 65bb 56c1 3bbb 189c 0fbc
000003b0: f217 4dbc a90d abbc 1d2c 05bd f0b8 1fbd
000003c0: b025 17bd f870 bcbc ee17 183c 5022 9e3c
000003d0: 23aa 62bb 6dfd 7f3c d781 58bc d256 2f3b
000003e0: 52c5 af3c b32a b63c c2d9 e63c ec4e af3c
000003f0: d471 ed3c e75a 0d3d 0d76 c43c cf94 453c

conv0.bias f4 [12]
0.025998214 -0.19105451 -0.025585596 0.01455753 0.058829796 -0.09445501 -0.10103343 0.014684246
0.07732767 -0.053472653 -0.12758785 0.023344314
00000000: 35fa d43c cba3 43be e298 d1bc b582 6e3c
00000010: 83f7 703d a171 c1bd 9dea cebd 3196 703c
00000020: f85d 9e3d 2406 5bbd 64a6 02be 933c bf3c

deconv0.weight f4 [12, 3, 32, 32]
-0.0004882792 -0.0031248278 -0.00030425412 0.0016205717 0.003326911 0.0016217467 0.0016937478 0.0015186279
0.0042604906 0.003005187 -0.00029679766 0.0022513208 0.0043560234 0.0047901166 0.001871925 0.0004235028
-0.0031574806 -0.0030941372 -0.0042940145 -8.44258e-05 -0.00064892735 0.0006343905 0.0011993711 0.0066579063
0.0028396465 0.0031967321 0.0035496098 0.00028105103 0.00043572107 -0.0021619333 -0.006059342 0.000618682
-0.0031005745 -0.0039951364 0.0011406385 -0.002805628 -0.0033428126 -0.0041162716 -0.0025020197 -0.0036460285
-0.0017155786 0.00020563212 -0.0002322656 0.0033144632 0.0010796937 -0.004784408 -0.0044287895 -0.0046693375
-0.008498543 -0.006843275 -0.0014020894 0.0014460059 -0.00019138893 0.003536744 0.0017376806 0.0015767593
0.0067865737 0.0073219263 0.0082927905 0.0034634273 -0.00017096449 -0.0027598068 -0.0030576724 0.0011691715
-0.001869536 0.000116230825 0.0017992784 -0.00027518865 0.0020425492 0.0032849927 0.003992383 0.0030432756
0.0040151994 0.006499852 0.0050413236 0.007440259 0.0068503297 0.003519623 0.0053144884 -0.0022867494
-0.00065978937 0.00415302 0.005898356 0.008519098 0.009545579 0.0109084705 0.007782486 0.0027861344
0.0050171427 0.0026252777 0.0063663963 0.00827042 0.0053493166 0.0005563204 0.00016580909 -0.0045608054
0.0071709557 0.0020577344 0.0041465526 0.005132325 0.010437861 0.009438085 0.01183863 0.009052448
0.015055499 0.014216177 0.013022587 0.013750683 0.015482351 0.012003165 0.009477898 0.0067837923
0.0015390982 0.0014848568 -0.00019845049 0.0064951126 0.0070450623 0.0060927644 0.0040017543 0.005072226
0.0032559386 0.0034063864 0.006504423 0.005940893 0.0023282382 0.0027734507 0.0023209902 -0.0030115715
-0.0008392307 -0.0014933954 -0.0041084443 -0.002369557 0.0012316137 0.0055474928 0.0064558885 0.004189877
0.010381463 0.002101763 0.0005109103 -0.0034141012 -0.008357477 -0.014123726 -0.022029502 -0.023838265
-0.032576595 -0.022933548 -0.011590353 -0.0025507254 0.0002225287 0.0052925544 0.0027628194 0.005227195
0.010348506 0.014496771 0.021492852 0.026288968 0.026480842 0.01979171 0.009521866 0.0018602721
0.00047162204 0.00174623 0.0027608713 0.0007015394 0.0039153704 -9.655086e-05 0.0021995574 0.003475415
0.0024288488 -1.9667494e-05 -0.0012683574 -0.0066101537 -0.012423499 -0.022900924 -0.028189551 -0.034543127
-0.037537053 -0.03007604 -0.01914096 -0.011023173 -0.0022113253 0.0027328273 0.0034933966 0.0042884364
0.01478971 0.01893928 0.022557283 0.026050348 0.025578223 0.020393945 0.008627241 0.0072947023
-0.0012207509 0.00024412216 0.0051317555 0.0058975187 0.007840424 0.0044460217 2.952862e-05 -0.0013513485
0.00094907737 0.0038489578 0.006089915 0.0069636367 -0.0016278499 -0.015132778 -0.03489445 -0.04431304
-0.050571956 -0.0317918 -0.008466293 0.01207782 0.018715959 0.016200693 0.0062258723 -0.0041155363
-0.00024076227 0.013498972 0.025366193 0.03779295 0.0386844 0.026239393 0.011439354 5.0807143e-05
-0.00435075 0.0017926146 0.0038243523 0.0040854583 0.0067102234 0.001965529 0.0012790844 -0.0016310429
0.003120128 0.0035088172 0.0050637233 0.006397971 -0.0004927741 -0.015494479 -0.028525917 -0.036273565
-0.040242847 -0.030086022 -0.0062541096 0.01537911 0.022846717 0.019886622 0.012616177 0.0011379714
0.0022241108 0.011987001 0.024295555 0.033264 0.036883228 0.028870787 0.012788511 0.0026340263
00000000: baff ffb9 e9c9 4cbb 4c84 9fb9 5d69 d43a
00000010: 4e08 5a3b ca90 d43a bf00 de3a b20c c73a
00000020: 969b 8b3b acf2 443b 829b 9bb9 e58a 133b
00000030: f9bc 8e3b 69f6 9c3b 615b f53a 9509 de39
00000040: bced 4ebb 02c7 4abb ceb4 8cbb c20d b1b8
00000050: c71c 2aba 3a4d 263a 3734 9d3a 912a da3b
00000060: 5d19 3a3b 4480 513b 92a0 683b 085a 9339
00000070: 7e71 e439 39af 0dbb 728d c6bb 0c2f 223a
00000080: 0233 4bbb a2e9 82bb 7a81 953a a1de 37bb
00000090: 1713 5bbb cae1 86bb edf8 23bb 35f2 6ebb
000000a0: 44dd e0ba f49e 5739 528c 73b9 7737 593b
000000b0: 8284 8d3a 86c6 9cbb 611f 91bb 3e01 99bb
000000c0: 793d 0bbc 8d3d e0bb 50c6 b7ba e887 bd3a
000000d0: 93af 48b9 b8c8 673b e3c2 e33a 43ab ce3a
000000e0: e861 de3b c5ec ef3b 7cde 073c abfa 623b
000000f0: ee44 33b9 e0dd 34bb 3b63 48bb e33e 993a
00000100: 380b f5ba f3c0 f338 c4d5 eb3a 3247 90b9
00000110: 4adc 053b 0849 573b 89d2 823b b171 473b
00000120: ef91 833b b6fc d43b b031 a53b 6bcd f33b
00000130: bb78 e03b 7aa9 663b 2925 ae3b 4add 15bb
00000140: b7f5 2cba 0f16 883b ff46 c13b b093 0b3c
00000150: 0f65 1c3c 71b9 323c 3904 ff3b 9497 363b
00000160: d866 a43b da0c 2c3b 349d d03b a880 073c
00000170: 5249 af3b 08d6 113a 0add 2d39 cf72 95bb
00000180: 56fa ea3b 0edb 063b cedf 873b 102d a83b
00000190: 9003 2b3c 33a2 1a3c d0f6 413c b850 143c
000001a0: 57ab 763c f8ea 683c b05c 553c 8b4a 613c
000001b0: b0a9 7d3c eca8 443c 2f49 1b3c 934a de3b
000001c0: 91bb c93a 879f c23a 2617 50b9 f4d4 d43b
000001d0: 44da e63b d0a5 c73b 2621 833b ea34 a63b
000001e0: 9661 553b ae3d 5f3b 0e23 d53b d3ab c23b
000001f0: 5b95 183b c8c2 353b c11b 183b c95d 45bb
00000200: d2ff 5bba 09be c3ba 21a0 86bb 924a 1bbb
00000210: 196e a13a bec7 b53b eb8b d33b 3c4b 893b
00000220: 0317 2a3c bbbd 093b 9cee 053a 1dbf 5fbb
00000230: cded 08bc 3367 67bc 3777 b4bc 7748 c3bc
00000240: 096f 05bd 23df bbbc 77e5 3dbc 122a 27bb
00000250: 9856 6939 2a6d ad3b 6b10 353b e448 ab3b
00000260: c88c 293c dd83 6d3c c711 b03c f65b d73c
00000270: 5aee d83c 3922 a23c 9a01 1c3c 60d4 f33a
00000280: 0a44 f739 c1e1 e43a bcef 343b 83e7 373a
00000290: 824c 803b 597b cab8 7326 103b cac3 633b
000002a0: 522d 1f3b 9ffb a4b7 033f a6ba fd99 d8bb
000002b0: ee8b 4bbc b89a bbbc c6ed e6bc 187d 0dbd
000002c0: 74c0 19bd 0762 f6bc 81cd 9cbc 8a9a 34bc
000002d0: e2eb 10bb 3c19 333b 78f1 643b 0386 8c3b
000002e0: 8a50 723c 8d26 9b3c 0dca b83c 8a67 d53c
000002f0: 6c89 d13c 3411 a73c 4559 0d3c 6608 ef3b
00000300: 9a01 a0ba 0bfb 7f39 4928 a83b f93f c13b
00000310: 1f75 003c efaf 913b 3bb4 f737 bb1f b1ba
00000320: 81cb 783a cc3e 7c3b e98d c73b 382f e43b
00000330: 945d d5ba 79ef 77bc 7ced 0ebd 9781 35bd
00000340: 8a24 4fbd 1e38 02bd 35b6 0abc 0ce2 453c
00000350: 3652 993c 51b7 843c 6702 cc3b 9fdb 86bb
00000360: 2175 7cb9 cb2a 5d3c c3cc cf3c c8cc 1a3d
00000370: 8973 1e3d fff3 d63c 216c 3b3c c119 5538
00000380: bc90 8ebb 2af6 ea3a fca1 7a3b 4fdf 853b
00000390: 6fe1 db3b 1bd0 003b f3a6 a73a b8c8 d5ba
000003a0: 107b 4c3b 2ff4 653b 97ed a53b 12a6 d13b
000003b0: 832d 01ba 8edc 7dbc 2faf e9bc 9793 14bd
000003c0: afd5 24bd f676 f6bc 46ef ccbb aaf8 7b3c
000003d0: 0a29 bb3c 45e9 a23c 15b4 4e3c fc27 953a
000003e0: 63c2 113b 2065 443c 7907 c73c d53f 083d
000003f0: de12 173d 6e82 ec3c e786 513c a19f 2c3b

deconv0.bias f4 [3]
-0.001612711 0.011874931 -0.003960134
00000000: 9a61 d3ba 128f 423c 03c4 81bb

conv1_1.weight f4 [64, 3, 11, 11]
-0.03098045 0.013810614 -0.048682444 -0.033518534 -0.037043653 -0.081312425 0.00704086 -0.09437196
-0.021090914 0.052465387 -0.02879948 -0.007819783 -0.017184325 0.057910405 0.018965295 0.003477087
-0.025185594 0.090888955 0.13004392 0.019186098 -0.028577961 0.048787873 0.061450653 0.07519752
-0.009670547 -0.027559109 0.041301016 0.033489022 -0.02371408 -0.016841296 -0.009521144 0.00797729
-0.11358142 0.029785361 0.10408909 -0.011728157 -0.020305643 0.06019184 0.030963473 -0.029668681
0.0053952443 0.045582503 0.009593205 -0.09699677 -0.00469931 -0.04622464 -0.07608769 -0.039346598
-0.040125426 -0.008399788 -0.028596725 0.016225502 -0.049421642 -0.008074549 -0.14950359 -0.027501462
0.027359229 0.034560814 0.1227654 0.03624842 -0.044241935 0.025074752 -0.07077125 -0.14001107
-0.0364146 -0.0072074626 0.068845004 0.09196136 0.04158224 -0.01620918 -0.06032833 -0.03467575
-0.027096733 0.022715025 0.059534486 0.011870901 0.100503355 0.044426113 -0.021480031 0.0013133578
-0.06627571 -0.003292652 0.03485664 -0.0059160125 0.03576066 0.0066581704 -0.0017737286 -0.029222168
0.05301626 0.032457627 0.07536359 0.071048245 0.014072958 0.06487246 0.04084642 0.02625086
0.011106633 0.025488326 -0.0106758 0.0042563686 -0.023655474 0.016265342 0.091208175 -0.02406809
-0.057607893 -0.046643924 0.062485907 0.00014885959 0.03589662 -0.015267451 -0.08976737 0.04542454
0.02542908 0.028369742 0.03500696 0.0178498 -0.034585483 0.05653349 0.12403286 0.13182135
0.15704007 -0.07652118 0.006210626 -0.072693005 -0.026920414 0.021156272 0.006175658 0.010485831
-0.0037177915 0.08138298 0.0739872 0.029903894 0.03603755 0.0083011715 0.07796399 0.010066402
0.031464804 -0.09593402 -0.0046575917 0.06926097 0.056128442 -0.037096273 0.05814728 0.01762265
-0.04958998 -0.078779735 -0.066732176 -0.020912893 -0.011863167 -0.047327533 -0.10260277 -0.08414679
-0.052108537 -0.033821397 -0.0045096828 -0.015039739 -0.013340872 -0.0015833114 -0.035705984 -0.015473043
-0.21014242 0.07598279 0.06808276 0.12901138 0.039573375 -0.030518418 0.03022815 0.072821595
0.07821191 0.001586731 -0.04609701 0.003135691 0.05614154 0.014033662 0.037249506 -0.04780485
-0.018016908 0.0667753 0.071774684 0.09044742 0.07405814 -0.020591624 0.076341346 -0.024357654
-0.0051685465 -0.04148166 0.048918664 0.10144633 0.047367625 -0.07111981 -0.06670027 -0.043375056
-0.12813255 -0.034411885 0.039216906 0.061791915 0.045956917 0.1443842 -0.06266824 -0.07500255
-0.121940576 -0.110721976 -0.052748833 -0.029902192 -0.052836034 0.015427691 -0.03159321 -0.00058228883
0.001481839 -0.0061843838 -0.008836929 0.02358948 -0.10046269 -0.07799773 -0.054382775 0.011433419
-0.046216644 -0.061596766 -0.012690555 -0.02288625 -0.010076368 0.035923675 0.04052673 0.02938403
0.03756251 0.024228642 0.06811791 0.07226315 0.00834752 -0.020961368 -0.005812537 -0.0062722154
-0.019935315 0.053673077 -0.039162304 -0.012570779 0.07711501 0.00769205 -0.054943077 0.053633627
0.029041175 -0.011995662 0.019564308 0.018404868 -0.045063633 -0.04206994 0.088649385 0.056909334
0.023656968 -0.12654476 -0.033886705 -0.06412166 -0.09293157 0.023107354 0.0146537945 0.010977715
00000000: b6ca fdbc ea45 623c 3e67 47bd bb4a 09bd
00000010: 16bb 17bd 2187 a6bd 04b7 e63b 1646 c1bd
00000020: dac6 acbc f2e5 563d e3ec ebbc 8c1e 00bc
00000030: 24c6 8cbc 7633 6d3d 1b5d 9b3c d7df 633b
00000040: 0552 cebc fd23 ba3d 3c2a 053e 2a2c 9d3c
00000050: 541c eabc cbd5 473d aeb3 7b3d 2801 9a3d
00000060: 3771 1ebc a4c3 e1bc 412b 293d c92b 093d
00000070: 0844 c2bc c2f6 89bc 93fe 1bbc 2eb3 023c
00000080: 609d e8bd 6e00 f43c a92c d53d 7527 40bc
00000090: 0558 a6bc b88b 763d 1ca7 fd3c bc0b f3bc
000000a0: 97ca b03b b8b4 3a3d d12c 1d3c 3ea6 c6bd
000000b0: abfc 99bb 0c56 3dbd ddd3 9bbd e629 21bd
000000c0: 8f5a 24bd 449f 09bc ae43 eabc 58eb 843c
000000d0: 596e 4abd 1d4b 04bc 7817 19be bf4a e1bc
000000e0: 7620 e03c a48f 0d3d 6d6c fb3d 3979 143d
000000f0: 0837 35bd 9169 cd3c 84f0 90bd 105f 0fbe
00000100: 7a27 15bd 942c ecbb 9cfe 8c3d 3d56 bc3d
00000110: 2452 2a3d 1dc9 84bc d71a 77bd 2908 0ebd
00000120: f8f9 ddbc dc14 ba3c 6fda 733d 2b7e 423c
00000130: b4d4 cd3d 28f8 353d e4f6 afbc fa24 ac3a
00000140: 8fbb 87bd 89c9 57bb d6c5 0e3d 1cdb c1bb
00000150: c579 123d c82c da3b 757c e8ba 5463 efbc
00000160: 9427 593d 4af2 043d 3a58 9a3d be81 913d
00000170: 4492 663c dadb 843d 934e 273d 0b0c d73c
00000180: 98f8 353c e5cc d03c 8de9 2ebc 0279 8b3b
00000190: 20c9 c1bc e53e 853c 5acb ba3d 712a c5bc
000001a0: 41f6 6bbd b30d 3fbd 39f1 7f3d 3117 1c39
000001b0: 5608 133d 5524 7abc f4d7 b7bd 150f 3a3d
000001c0: a550 d03c a967 e83c 7563 0f3d be39 923c
000001d0: 82a9 0dbd a98f 673d f104 fe3d 2dfc 063e
000001e0: 1dcf 203e 23b7 9cbd 8282 cb3b 12e0 94bd
000001f0: 3388 dcbc eb4f ad3c 2d5d ca3b c3cc 2b3c
00000200: 31a6 73bb 1fac a63d 9a86 973d 03f9 f43c
00000210: 1c9c 133d a301 083c 96ab 9f3d 8ded 243c
00000220: 3de1 003d 0e79 c4bd b69e 98bb b2d8 8d3d
00000230: f0e6 653d 43f2 17bd d82b 6e3d 605d 903c
00000240: dd1e 4bbd 4557 a1bd e1aa 88bd 8451 abbc
00000250: bb5d 42bc 84da 41bd 6721 d2bd 2755 acbd
00000260: c36f 55bd 4e88 0abd f6c5 93bb 3d69 76bc
00000270: ac93 5abc 1d87 cfba 7040 12bd a582 7dbc
00000280: 932f 57be dd9c 9b3d f96e 8b3d 8f1b 043e
00000290: b117 223d c301 fabc 06a1 f73c 7d23 953d
000002a0: 912d a03d dcf9 cf3a 38d0 3cbd 2a80 4d3b
000002b0: acf4 653d 72ed 653c f092 183d 05cf 43bd
000002c0: 3298 93bc 7dc1 883d 9bfe 923d 7f3c b93d
000002d0: cbab 973d c4af a8bc da58 9c3d b489 c7bc
000002e0: e95c a9bb ace8 29bd f05e 483d 18c3 cf3d
000002f0: 8e04 423d 43a7 91bd 279a 88bd 0baa 31bd
00000300: 2e35 03be 7af3 0cbd e8a1 203d 8519 7d3d
00000310: 523d 3c3d 74d9 133e 3558 80bd f09a 99bd
00000320: fbbb f9bd 34c2 e2bd 290f 58bd 71f5 f4bc
00000330: 996a 58bd 6dc4 7c3c e267 01bd bea4 18ba
00000340: 443a c23a 5fa6 cabb c4c8 10bc ba3e c13c
00000350: 62bf cdbd 46bd 9fbd 79c0 5ebd 3c53 3b3c
00000360: aa4d 3dbd e44c 7cbd 0cec 4fbc f27b bbbc
00000370: 5a17 25bc b424 133d 5bff 253d c7b6 f03c
00000380: 26db 193d 257b c63c 6781 8b3d b4fe 933d
00000390: 09c4 083c 2db7 abbc 1877 bebb 2887 cdbb
000003a0: 634f a3bc 4dd8 5b3d a768 20bd abf5 4dbc
000003b0: 79ee 9d3d 980d fc3b fe0b 61bd efae 5b3d
000003c0: c2e7 ed3c 7489 44bc 5445 a03c cec5 963c
000003d0: a594 38bd 8851 2cbd cf8d b53d c319 693d
000003e0: 42cc c13c f394 01be c9cc 0abd 3852 83bd
000003f0: e852 bebd a24b bd3c 7816 703c e0db 333c

conv1_1.bias f4 [64]
0.22968689 0.0048144544 -0.041938156 -0.032614786 0.14514694 0.082298405 0.009923509 -0.024491398
-0.03848515 -0.23427509 -0.20631027 -0.016636802 0.084537216 0.05650905 -0.30530193 0.017305894
-0.009556334 -0.101918094 -0.24057417 0.46557412 -0.052212287 0.037294563 0.09207815 0.059931997
0.13924876 -0.11637984 0.024238057 0.112630494 -0.12201159 -0.29987028 -0.022915743 0.06480481
0.114520416 -0.11739894 -0.03086752 0.012910476 0.008993652 -0.09071567 0.07901516 0.08612892
0.08870128 0.19620977 -0.15633765 0.06659768 -0.025984475 -0.26871735 -0.023133408 -0.11338441
0.042713802 0.02404989 -0.06891317 0.112911046 0.032121412 -0.010129994 -0.034678698 0.011382566
-0.03663459 0.13049462 -0.30978492 0.19762889 -0.05588815 0.04674735 0.1207205 0.15147285
00000000: 0a33 6b3e 92c2 9d3b 58c7 2bbd 1597 05bd
00000010: 66a1 143e 118c a83d 3796 223c 2fa2 c8bc
00000020: 9ba2 1dbd cfe5 6fbe 0043 53be e749 88bc
00000030: d921 ad3d 0976 673d 8950 9cbe 17c5 8d3c
00000040: 2b92 1cbc 6fba d0bd 1359 76be bb5f ee3e
00000050: 8ddc 55bd 2fc2 183d 7893 bc3d 417b 753d
00000060: 3a97 0e3e 8e58 eebd e48e c63c d1aa e63d
00000070: 36e1 f9bd 9988 99be ccb9 bbbc 62b8 843d
00000080: ae89 ea3d db6e f0bd e2dd fcbc 7686 533c
00000090: 1c5a 133c 23c9 b9bd b3d2 a13d 5c64 b03d
000000a0: 04a9 b53d 37eb 483e fa16 20be 5d64 883d
000000b0: 65dd d4bc 5295 89be 4682 bdbc 1636 e8bd
000000c0: abf4 2e3d 4604 c53c 5922 8dbd e83d e73d
000000d0: be91 033d 46f8 25bc 400b 0ebd f17d 3a3c
000000e0: 270e 16bd 62a0 053e 219c 9ebe 3a5f 4a3e
000000f0: f9ea 64bd 267a 3f3d 4f3c f73d b31b 1b3e

conv1_2.weight f4 [32, 64, 1, 1]
-0.84945786 -0.24591033 -0.13838513 0.0225656 0.008128317 -0.011982783 -0.08916531 -0.21159562
-0.07158371 -0.16512011 -0.04915866 0.11605666 -0.03677596 0.07858104 -0.063651465 0.032178096
-0.07983913 0.20136458 0.27595955 -0.06713691 -0.02666361 -0.017249487 0.29675266 0.030066354
-0.4930057 0.04148976 0.30282277 -0.43326542 0.14692438 0.026987782 -0.082848154 0.11629163
0.22584592 -0.11469086 0.017523548 0.21507315 -0.019945925 -0.085216954 0.077854946 -0.44069663
-0.02339413 -0.25889024 0.5156906 -0.07937353 0.08592615 -0.0083265845 -0.005238753 -0.59150076
0.02804092 0.2581225 0.1139135 0.052852485 -0.10794956 -0.35985214 -0.03208928 -0.42083114
0.0017281483 -0.12138341 -0.3667877 -1.5564398 -0.083940215 0.042273104 -0.020854538 0.3066364
0.10932802 0.13893072 -0.08738831 -0.13732107 -0.13910924 0.07009217 0.20762482 0.11544414
-0.17744488 -0.031769484 0.24803784 0.33006868 -0.12879261 0.13729067 -0.02730029 0.1952158
-0.06253699 -0.04286574 0.03260356 0.044462174 -0.19642211 -0.110748984 0.06952754 -0.03785181
-0.06856301 0.095287934 0.08925527 0.0055217016 -0.17546725 0.12225097 0.14798401 -0.10357873
0.058137238 0.09072926 -0.0816582 -0.14928101 -0.09016811 0.094937496 0.05271386 -0.15613903
0.16715886 -0.05729796 0.44227612 0.046604056 -0.006821134 -0.1437309 0.03299631 0.19022739
-0.04910401 0.09476426 -0.08151246 0.00051761424 0.14720088 -0.123800635 0.04718946 0.18453924
-0.19605969 0.029614009 0.16891167 0.18866156 0.08410548 -0.12312875 -0.03410126 0.111562416
-0.3162449 0.07094849 -0.045230962 0.017917609 -0.06697956 -0.40297535 0.24361417 0.08018033
0.114542246 -0.03506013 0.11648423 0.026316721 0.16613357 -0.007166749 -0.03141678 0.066479824
-0.09063026 -0.093863584 0.46386504 -0.07432029 0.049242564 0.29985228 0.2017247 -0.12878238
-0.58632934 0.26672745 0.0662856 -1.944378 -0.08705611 -0.003722543 0.11363989 -0.11348922
0.03918534 -0.17280865 0.09772702 0.0138573 -0.1149493 -0.18702196 0.024447558 -0.08083045
0.12548217 -0.20560731 0.30562702 0.15928693 0.12067497 0.04150829 0.16017255 -0.20020786
0.19441754 -0.11178694 0.0053246506 0.010022202 -0.006020221 -0.32632872 -0.031880636 -0.42859423
-0.13362429 -0.15705428 -0.12780844 -1.4074107 -0.13377926 -0.08607895 0.013281686 0.07461818
-0.12834933 0.08782922 0.01741143 -0.05088321 0.13750571 0.06571188 0.010272259 0.11357372
-0.30808845 -0.051848445 -0.28373447 0.0856753 -0.1677615 -0.03879748 -0.25272122 -0.07301736
-0.038562663 0.18580946 -0.07374172 -0.039563254 0.10200544 -0.0262777 0.009728939 -0.034855925
0.08285215 -0.013452007 -0.06807972 -0.14160313 0.07712663 -0.0006817546 0.113843255 -0.22761746
0.06910034 -0.21528314 0.025116082 0.13807298 -0.091914274 -0.00843268 0.0037268542 0.001331489
0.076410174 0.12837508 0.17864454 -0.030838871 0.07370641 0.08445896 0.004206589 -0.56817234
-0.08999054 -0.016144257 0.09404076 -0.049705666 0.06158801 0.104487866 -0.03011912 0.054287445
-0.13335146 0.12972982 -0.09598955 -0.055413794 0.12588295 -0.050903156 -0.17726272 0.09507321
00000000: 1276 59bf ebcf 7bbe d5b4 0dbe 7edb b83c
00000010: a22c 053c 6f53 44bc 4d9c b6bd 86ac 58be
00000020: 7b9a 92bd 3f15 29be 975a 49bd 1daf ed3d
00000030: 64a2 16bd 19ef a03d b35b 82bd 2ecd 033d
00000040: b382 a3bd 8432 4e3e 924a 8d3e 147f 89bd
00000050: a56d dabc cc4e 8dbc f7ef 973e b74d f63c
00000060: 3e6b fcbe 2bf1 293d 960b 9b3e f7d4 ddbe
00000070: 5873 163e 7b15 dd3c 4bac a9bd 4e2a ee3d
00000080: 2744 673e 0be3 eabd 8b8d 8f3c 233c 5c3e
00000090: a365 a3bc 3a86 aebd 6a72 9f3d fda2 e1be
000000a0: 0ca5 bfbc 438d 84be 4d04 043f 978e a2bd
000000b0: 0dfa af3d 3a6c 08bc d8a9 abbb 986c 17bf
000000c0: 12b6 e53c a228 843e 7b4b e93d d97b 583d
000000d0: a914 ddbd 8a3e b8be 0d70 03bd 2e77 d7be
000000e0: 0983 e23a de97 f8bd 99cb bbbe 6b39 c7bf
000000f0: d9e8 abbd 9026 2d3d 23d7 aabc 72ff 9c3e
00000100: 5ee7 df3d db43 0e3e a4f8 b2bd e59d 0cbe
00000110: a772 0ebe 7c8c 8f3d 9a9b 543e fa6d ec3d
00000120: 1cb4 35be b820 02bd a2fd 7d3e c3fe a83e
00000130: 36e2 03be ed95 0c3e dca4 dfbc a7e6 473e
00000140: 6513 80bd fc93 2fbd 4f8b 053d f81d 363d
00000150: e122 49be 5dd0 e2bd 7464 8e3d 800a 1bbd
00000160: c36a 8cbd 5226 c33d 78cb b63d 64ef b43b
00000170: b0ad 33be b75e fa3d 1f89 173e 1621 d4bd
00000180: 5021 6e3d 43d0 b93d 6a3c a7bd 1fdd 18be
00000190: 0faa b8bd 976e c23d 7dea 573d e9e2 1fbe
000001a0: b12b 2b3e 44b1 6abd 0472 e23e e5e3 3e3d
000001b0: d283 dfbb 312e 13be 2427 073d f8ca 423e
000001c0: 4921 49bd c413 c23d 01f0 a6bd 81b0 073a
000001d0: d4bb 163e 308b fdbd bc49 413d dbf7 3c3e
000001e0: dfc3 48be 1499 f23c 2ef7 2c3e 7f30 413e
000001f0: 7e3f ac3d ed2a fcbd c3ad 0bbd d67a e43d
00000200: daea a1be 714d 913d 1a44 39bd f3c7 923c
00000210: 942c 89bd c952 cebe fe75 793e 9635 a43d
00000220: 2095 ea3d 369b 0fbd 498f ee3d 2a96 d73c
00000230: eb1e 2a3e 0cd7 eabb e2ae 00bd 9326 883d
00000240: 5c9c b9bd 8d3b c0bd b87f ed3e 3c35 98bd
00000250: 92b2 493d 3d86 993e eb90 4e3e 87df 03be
00000260: ae19 16bf 8090 883e bfc0 873d 61e1 f8bf
00000270: 794a b2bd e8f5 73bb 08bc e83d 096d e8bd
00000280: cf80 203d c0f4 30be 1b25 c83d bb09 633c
00000290: 8a6a ebbd af82 3fbe 3f46 c83c 6f8a a5bd
000002a0: 667e 003e b98a 52be 257b 9c3e 1d1c 233e
000002b0: 7024 f73d 9904 2a3d 4604 243e 4a03 4dbe
000002c0: 6415 473e 8df0 e4bd 687a ae3b 2934 243c
000002d0: 4645 c5bb 8f14 a7be 4595 02bd b470 dbbe
000002e0: ced4 08be d6d2 20be 37e0 02be 0926 b4bf
000002f0: 6efd 08be 294a b0bd 6e9b 593c 6bd1 983d
00000300: 026e 03be cedf b33d 6aa2 8e3c ea6a 50bd
00000310: 4cce 0c3e f393 863d fa4c 283c 5799 e83d
00000320: c5bd 9dbe 095f 54bd a545 91be 8876 af3d
00000330: acc9 2bbe 1bea 1ebd ad64 81be 208a 95bd
00000340: e2f3 1dbd d644 3e3e e605 97bd 140d 22bd
00000350: 3ae8 d03d 5544 d7bc 2166 1f3c 16c5 0ebd
00000360: 63ae a93d cf65 5cbc 616d 8bbd 6900 11be
00000370: 91f4 9d3d c7b7 32ba a726 e93d 8d14 69be
00000380: 7b84 8d3d 2f73 5cbe 3ec0 cd3c 0163 0d3e
00000390: 8d3d bcbd 3929 0abc 3d3e 743b 5b85 ae3a
000003a0: f07c 9c3d c274 033e 98ee 363e cda1 fcbc
000003b0: 63f3 963d d2f8 ac3d 6dd7 893b be73 11bf
000003c0: f64c b8bd f640 84bc 7198 c03d 2b98 4bbd
000003d0: b643 7c3d bcfd d53d 5fbc f6bc 835c 5e3d
000003e0: 498d 08be e5d7 043e 2b96 c4bd 93f9 62bd
000003f0: 76e7 003e d47f 50bd 5c84 35be beb5 c23d

conv1_2.bias f4 [32]
0.042815696 -0.005414415 0.06740055 0.09001344 0.077221654 -0.049984373 -0.11451621 -0.1151423
0.0495189 0.1037795 0.07857376 0.10754705 0.057953056 -0.18042982 0.1626219 0.053463396
0.08472929 0.067157306 0.08227918 0.11081207 -0.030124031 0.13891108 0.016587337 0.018578868
0.15020652 -0.08557915 -0.020615187 0.055010308 0.114158764 0.0013634702 0.06338134 -0.019501932
00000000: 835f 2f3d 686b b1bb 4d09 8a3d f758 b83d
00000010: 6326 9e3d 6abc 4cbd 7a87 eabd bacf ebbd
00000020: 55d4 4a3d 598a d43d 48eb a03d a141 dc3d
00000030: 2f60 6d3d 98c2 38be 5b86 263e 6ffc 5a3d
00000040: 8d86 ad3d c589 893d fd81 a83d 70f1 e23d
00000050: acc6 f6bc b53e 0e3e 2be2 873c b632 983c
00000060: bdcf 193e 1f44 afbd 2ee1 a8bc 7d52 613d
00000070: 12cc e93d 78b6 b23a 13ce 813d 84c2 9fbc

conv1_3.weight f4 [3, 32, 7, 7]
-0.06692432 -0.09876006 0.007272685 0.04315462 -0.0025579955 -0.07884367 -0.14565964 -0.2012461
-0.0644136 0.0206572 0.05199119 -0.006285109 -0.11425535 -0.16599053 -0.17850457 -0.16304033
0.074089 0.055912115 0.1412499 0.04107564 -0.0054641734 -0.14143391 -0.0052509187 0.29975918
0.43861407 0.5557024 0.45715848 -0.0020256648 -0.010263541 -0.030876398 -0.029686023 0.07343259
0.15454154 0.10291724 0.022457149 -0.012611264 -0.113734245 -0.12773605 -0.060926106 0.017859502
-0.17278099 -0.23818387 -0.031169984 -0.11870038 -0.08533942 -0.024942672 -0.080697194 -0.066455804
-0.034024846 -0.016478088 -0.0039220387 0.024254624 0.038897336 0.05003673 0.036177948 -0.042104237
-0.020919893 0.015695013 0.0005393949 0.05070426 0.03270807 0.032198332 -0.0481279 -0.0015335063
0.010141545 -0.035632737 -0.006966389 0.02001895 0.038262803 -0.011071068 0.07741167 0.06548888
0.035711203 0.03324374 -0.029874826 -0.05999102 -0.055523213 0.07552072 0.03463422 0.039789796
0.006227999 -0.022220071 -0.021075882 -0.050283287 -0.012711991 -0.029453494 -0.018860605 -0.09650586
-0.045182988 -0.020322597 -0.057103015 0.0041161967 0.025479365 -0.0216465 -0.040664185 0.019467345
0.0040600784 -0.03482929 -0.22430477 -0.10678781 -0.052727476 -0.12341466 0.061964422 0.08776968
-0.082720466 -0.23676044 -0.10759656 -0.11382571 -0.13705674 0.06947621 0.055716343 -2.5585103e-05
-0.05685281 0.08256697 -0.03296687 -0.028446218 0.18558602 0.05483521 0.035451587 0.05993589
0.14382595 0.17693561 -0.035388477 0.094429165 -0.085514076 -0.04128925 -0.03895296 -0.060952157
0.011555855 -0.14359574 -0.10514525 -0.14111912 -0.14128175 -0.03960433 0.08959586 0.10683348
0.05684419 0.0010240161 -0.069012806 0.06979585 0.06786635 0.1688968 0.18635345 0.07904683
0.0835508 0.017789518 -0.015276747 0.02024358 0.061083335 0.038348917 0.055126663 0.020411968
-0.0071084215 0.013811298 0.0066677756 0.05546235 0.053016916 0.060721133 0.028007835 0.019383965
0.06439322 -0.03503499 -0.01628419 -0.007405982 0.01466388 0.015358165 0.016174447 -0.011254659
-0.053955793 0.017195038 0.019615209 -0.014651144 -0.02479908 -0.00053608813 0.04202648 -0.031917542
-0.018340811 0.03563801 0.020435499 -0.036601357 -0.013329701 0.06085573 -0.03207307 -0.009032107
0.0005022684 -0.07026414 -0.07471708 -0.054555565 -0.029085705 -0.053109657 -0.02360602 0.00365626
-0.09091688 -0.050670303 -0.028276816 0.0048762728 -0.026570711 -0.00544999 -0.074138306 -0.042390894
-0.027877603 0.018167043 -0.010818628 0.044463847 0.07250483 -0.021100637 0.07537975 0.08284587
0.017537896 0.069202065 0.055811565 -0.013254744 -0.06199818 0.0020305386 0.08184527 0.10811361
0.09459042 -0.112497985 -0.110427365 -0.12903285 -0.06662794 -0.0939919 0.08089289 -0.04316192
0.0075907856 -0.110508375 -0.18510309 0.014466169 -0.034788236 0.0364005 0.08432008 -0.020216685
0.0120605305 -0.07154131 -0.022213133 -0.05136998 0.028555484 0.014176795 0.003212914 0.01103171
0.01470808 -0.038205422 0.027753733 0.06332878 0.017770927 0.066909626 0.016178014 0.03709118
0.02930237 0.010522614 -0.013997684 -0.03092059 0.1260944 -0.0034260931 0.025286622 0.024219953
00000000: 9e0f 89bd b742 cabd b44f ee3b e6c2 303d
00000010: 0ba4 27bb ca78 a1bd cd27 15be 7513 4ebe
00000020: 47eb 83bd 4a39 a93c b7f4 543d 51f3 cdbb
00000030: b5fe e9bd 6cf9 29be e7c9 36be 0bf4 26be
00000040: f9bb 973d 1a04 653d d0a3 103e ee3e 283d
00000050: cf0c b3bb 0dd4 10be e60f acbb 097a 993e
00000060: 0692 e03e 8342 0e3f ad10 ea3e 04c1 04bb
00000070: 6928 28bc 80f0 fcbc 1a30 f3bc d363 963d
00000080: 2340 1e3e 46c6 d23d 0ef8 b73c 7a9f 4ebc
00000090: 80ed e8bd 3dcd 02be a78d 79bd 174e 923c
000000a0: 80ed 30be 79e6 73be 3258 ffbc 2f19 f3bd
000000b0: 6fc6 aebd 9354 ccbc 9244 a5bd fb19 88bd
000000c0: a35d 0bbd 0efd 86bc 7284 80bb a2b1 c63c
000000d0: d052 1f3d 50f3 4c3d 542f 143d 7e75 2cbd
000000e0: 3260 abbc d492 803c 2e66 0d3a 45af 4f3d
000000f0: e6f8 053d 66e2 033d c321 45bd efff c8ba
00000100: b928 263c a2f3 11bd 4e46 e4bb c8fe a33c
00000110: 75b9 1c3d 6d63 35bc 028a 9e3d 091f 863d
00000120: e945 123d 972a 083d 0dbc f4bc 25b9 75bd
00000130: 4f6c 63bd 9baa 9a3d 9ddc 0d3d a0fa 223d
00000140: 3e14 cc3b de06 b6bc 54a7 acbc d9f5 4dbd
00000150: f445 50bc 7448 f1bc 8e81 9abc dda4 c5bd
00000160: cc11 39bd 937b a6bc dae4 69bd 29e1 863b
00000170: 1aba d03c 0054 b1bc 7d8f 26bd fb79 9f3c
00000180: 680a 853b 28a9 0ebd 26b0 65be 91b3 dabd
00000190: c4f8 57bd d3c0 fcbd 68ce 7d3d 97c0 b33d
000001a0: 5969 a9bd 5471 72be 965b dcbd 741d e9bd
000001b0: 9a58 0cbe 8b49 8e3d d236 643d 979f d6b7
000001c0: 7ede 68bd df18 a93d 4508 07bd 0b08 e9bc
000001d0: 430a 3e3e e39a 603d af35 113d 567f 753d
000001e0: 1c47 133e 9c2e 353e 82f3 10bd 1464 c13d
000001f0: 0122 afbd eb1e 29bd 248d 1fbd f8a8 79bd
00000200: c554 3d3c c30a 13be 6556 d7bd 8881 10be
00000210: 2aac 10be 2638 22bd 097e b73d 83cb da3d
00000220: 74d5 683d 4738 863a 9656 8dbd 20f1 8e3d
00000230: 83fd 8a3d 48f3 2c3e 70d3 3e3e 4ee3 a13d
00000240: af1c ab3d 53bb 913c 524b 7abc ddd5 a53c
00000250: 8532 7a3d c113 1d3d 7fcc 613d 0037 a73c
00000260: c3ed e8bb c848 623c 5b7d da3b 7d2c 633d
00000270: 4428 593d b9b6 783d b070 e53c 1fcb 9e3c
00000280: 98e0 833d da80 0fbd 6c66 85bc e1ad f2bb
00000290: c540 703c d0a0 7b3c 4680 843c 7665 38bc
000002a0: c000 5dbd 9cdc 8c3c 13b0 a03c 5a0b 70bc
000002b0: 7127 cbbc 4488 0cba f523 2c3d f8bb 02bd
000002c0: 783f 96bc 29f9 113d 5968 a73c 4eeb 15bd
000002d0: d164 5abc dc43 793d 0d5f 03bd 67fb 13bc
000002e0: a9aa 033a a5e6 8fbd 4505 99bd a875 5fbd
000002f0: 2545 eebc 8389 59bd 6961 c1bc dd9d 6f3b
00000300: a132 babd aa8b 4fbd c8a4 e7bc 24c9 9f3b
00000310: d2aa d9bc d495 b2bb d3d5 97bd 13a2 2dbd
00000320: 925f e4bc 0dd3 943c 9d40 31bc b91f 363d
00000330: 6a7d 943d 3edb acbc b360 9a3d 18ab a93d
00000340: a2ab 8f3c d0b9 8d3d ab9a 643d 6d2a 59bc
00000350: cef1 7dbd c912 053b 7e9e a73d ab6a dd3d
00000360: 9fb8 c13d 5865 e6bd be27 e2bd 3021 04be
00000370: 3b74 88bd d37e c0bd 2cab a53d 8eca 30bd
00000380: 20bc f83b 3752 e2bd aa8b 3dbe 8303 6d3c
00000390: 1c7e 0ebd b118 153d 02b0 ac3d 769d a5bc
000003a0: 8899 453c 4084 92bd 51f8 b5bc 5469 52bd
000003b0: 31ed e93c ca45 683c c18f 523b 58be 343c
000003c0: 29fa 703c 4a7d 1cbd cc5b e33c 85b2 813d
000003d0: 5694 913c ea07 893d c187 843c ecec 173d
000003e0: 860b f03c 0b67 2c3c 8b56 65bc 2d4d fdbc
000003f0: e41e 013e 4e88 60bb e425 cf3c ec68 c63c

conv1_3.bias f4 [3]
0.008339655 0.01963571 0.005247849
00000000: 0ca3 083c 12db a03c 26f6 ab3b

conv2_1.weight f4 [64, 3, 11, 11]
0.007355434 -0.005879093 0.024466466 0.044353664 -0.06362782 -0.0642109 -0.0047406764 0.04653558
-0.059426162 -0.07583498 -0.013249888 0.03582959 0.01495407 -0.01869213 -0.03847892 -0.002124686
0.0064757387 -0.022716029 -0.023723451 0.0006735462 -0.003331071 -0.026169382 -0.034302954 0.02446027
0.03073756 -0.0054425355 -0.01689705 0.021073528 0.023340171 -0.047009453 -0.031189788 0.005330746
-0.06331559 -0.07865712 -0.0159331 0.03548145 -0.00710382 -0.036002122 -0.059179854 0.060218096
0.02803907 -0.0099389395 0.026108699 -0.061088145 -0.009965826 -0.028658118 -0.029895084 -0.008635771
-0.018184321 -0.0152543 0.04673571 -0.025587128 -0.02970209 -0.014547856 -0.043758426 0.016672678
0.025519837 0.07874442 0.06723649 0.11008446 0.082250744 0.15877493 0.09382804 0.08977445
0.06315866 -0.008284391 -0.058328252 0.007870363 -0.048581783 0.009532398 -0.008134869 0.012958785
0.13960716 -0.012877342 -0.056815263 0.03977799 0.01675894 -0.0028099953 -0.02331426 -0.026650237
-0.0037457594 0.00430648 0.065413676 0.011190077 -0.049253006 -0.03388737 -0.046119303 -0.0091217
0.021500243 -0.038025063 -0.0032870073 0.016758647 0.004093766 0.0033579036 0.061432432 -0.014960919
0.0297198 0.027901873 -0.038064893 -0.03009794 0.035649776 -0.039280087 -0.016231472 -0.036829785
-0.04267841 -0.011423156 0.03133514 -0.03437608 -0.019491509 0.03862743 -0.09621135 0.007256094
-0.039047733 0.0316234 -0.036905494 0.0057808454 0.03550197 -0.018542487 -0.00478625 0.0454014
-0.044555552 -0.05469245 0.031283423 0.0016009633 0.0051623173 0.032615095 0.043869026 -0.014243747
-0.05536551 -0.02406436 0.027958903 0.03869206 0.011448545 -0.018843656 -0.0034563066 0.012450027
-0.011226207 0.02212533 -0.04821487 -0.016589778 -0.03886432 0.020865943 0.014936935 -0.06387626
-0.009932562 0.0237522 0.0035010325 -0.018470513 -0.0018870846 -0.0060385442 -0.0047474713 0.014971415
0.023521965 -0.0486783 -0.011442935 -0.035817888 0.062772185 0.030753128 -0.04161231 0.008874879
0.05328998 0.041065153 -0.0012523101 -0.03495335 0.016662585 -0.014809858 0.03625769 -0.0029766967
-0.029036464 0.06472313 -0.00286571 0.048705015 0.025337316 0.03350798 -0.066134326 0.007349374
-0.007015578 0.045569345 0.045095045 0.023020523 0.10316803 0.11898265 0.13973819 0.06881325
0.07002001 0.061808605 -0.03176032 -0.037315622 0.04102638 -0.046256967 0.059108354 -0.019985847
-0.03127522 0.10839172 -0.045415804 0.009843093 0.030739976 -0.009721552 -0.023726521 0.004614176
0.023089053 -0.0043332153 0.0057184217 0.053715486 0.099863395 0.028349835 -0.022490127 0.007875823
-0.0431379 0.0018096127 -0.06437794 -0.034762364 0.0024657904 0.086429834 0.015737722 0.071945325
-0.047640894 -0.026356636 0.0050251484 -0.030743355 -0.014566953 -0.01846857 0.035103817 0.037522424
-0.043471254 -0.02913402 0.017734926 -0.017630758 -0.04285478 -0.017883662 -0.06936426 -0.06819979
-0.027203182 -0.08642983 -0.027872667 0.0066514057 -0.03703035 -0.06280046 -0.06758958 -0.035578534
-0.013115679 -0.08622541 -0.01845824 0.018708449 -0.034513492 0.030936332 -0.030440405 0.028807499
-0.020063836 0.0669492 0.036513288 -0.008886914 0.047058415 0.0036696666 0.023768477 -0.067877956
00000000: da05 f13b 68a5 c0bb e66d c83c 30ac 353d
00000010: 4d4f 82bd 0181 83bd ad57 9bbb 189c 3e3d
00000020: d968 73bd 5f4f 9bbd 0f16 59bc 0cc2 123d
00000030: ea01 753c 3d20 99bc 129c 1dbd 513e 0bbb
00000040: 6f32 d43b f716 babc af57 c2bc ec90 303a
00000050: 194e 5abb 2c61 d6bc 4181 0cbd e760 c83c
00000060: 56cd fb3c 4c57 b2bb af6b 8abc 64a2 ac3c
00000070: e333 bf3c fc8c 40bd ba81 ffbc 8aad ae3b
00000080: 9bab 81bd fc16 a1bd 2286 82bc ff54 113d
00000090: 29c7 e8bb f676 13bd 9366 72bd 40a7 763d
000000a0: 31b2 e53c efd6 22bc e9e1 d53c 9037 7abd
000000b0: b447 23bc 6ec4 eabc 89e6 f4bc 0d7d 0dbc
000000c0: 49f7 94bc 2ced 79bc f26d 3f3d 199c d1bc
000000d0: cc51 f3bc 215a 6ebc 093c 33bd 2495 883c
000000e0: fa0e d13c c144 a13d 49b3 893d f673 e13d
000000f0: 1473 a83d e595 223e ea28 c03d abdb b73d
00000100: 5459 813d 41bb 07bc 9be9 6ebd b2f2 003c
00000110: b1fd 46bd c62d 1c3c 1d48 05bc 1551 543c
00000120: 2ef5 0e3e 7dfb 52bc 1fb7 68bd 3fee 223d
00000130: 0b4a 893c e627 38bb 8cfd bebc 9951 dabc
00000140: 6a7b 75bb 5f1d 8d3b 9bf7 853d 9656 373c
00000150: 85bd 49bd 7ccd 0abd 98e7 3cbd 2f73 15bc
00000160: 4721 b03c 2bc0 1bbd d56a 57bb 6e49 893c
00000170: 0025 863b 4610 5c3b 93a0 7b3d a41e 75bc
00000180: f076 f33c 7892 e43c efe9 1bbd f48f f6bc
00000190: 8005 123d 28e4 20bd ddf7 84bc d4da 16bd
000001a0: 8ecf 2ebd 3028 3bbc 4759 003d efcd 0cbd
000001b0: a8ac 9fbc cc37 1e3d 750a c5bd 87c4 ed3b
000001c0: 84f0 1fbd 8a87 013d 372a 17bd 3f6d bd3b
000001d0: 846a 113d 6ae6 97bc fad5 9cbb d2f6 393d
000001e0: e27f 36bd 3105 60bd 0c23 003d 6ad7 d13a
000001f0: a828 a93b 6897 053d 02b0 333d 9b5e 69bc
00000200: f2c6 62bd 9f22 c5bc 120a e53c 917b 1e3d
00000210: ae92 3b3c 035e 9abc 3483 62bb 33fb 4b3c
00000220: 20ee 37bc 2e40 b53c f57c 45bd 49e7 87bc
00000230: 3130 1fbd 0eef aa3c 0cba 743c 8ed1 82bd
00000240: 2fbc 22bc f993 c23c 9471 653b 794f 97bc
00000250: 0d58 f7ba fbde c5bb ad90 9bbb aa4a 753c
00000260: 23b1 c03c e662 47bd 267b 3bbc c7b5 12bd
00000270: b48e 803d fced fb3c ab71 2abd f167 113c
00000280: 9846 5a3d ef33 283d 8e24 a4ba 3e2b 0fbd
00000290: f97f 883c 0ca5 72bc f282 143d af14 43bb
000002a0: e1dd edbc 8f8d 843d a3ce 3bbb e97e 473d
000002b0: 3490 cf3c aa3f 093d 6f71 87bd 04d3 f03b
000002c0: efe2 e5bb eca6 3a3d 95b5 383d 8995 bc3c
000002d0: c349 d33d 2dad f33d 8717 0f3e f6ed 8c3d
000002e0: a766 8f3d 052b 7d3d 1c17 02bd 44d8 18bd
000002f0: 470b 283d f277 3dbd 9a1b 723d 5cb9 a3bc
00000300: 721a 00bd 7afc dd3d ec05 3abd ed44 213c
00000310: 67d2 fb3c 2547 1fbc 1f5e c2bc 8432 973b
00000320: 4125 bd3c a5fd 8dbb 9961 bb3b c504 5c3d
00000330: 2e85 cc3d ea3d e83c 373d b8bc 9909 013c
00000340: 5eb1 30bd 8730 ed3a 95d8 83bd fb62 0ebd
00000350: 1999 213b 2002 b13d 65ec 803c 1258 933d
00000360: 1923 43bd dfe9 d7bc 00aa a43b 7dd9 fbbc
00000370: 3baa 6ebc 664b 97bc 05c9 0f3d 1db1 193d
00000380: ea0e 32bd 78aa eebc d648 913c 616e 90bc
00000390: 7e88 2fbd c280 92bc d90e 8ebd 55ac 8bbd
000003a0: 35d9 debc 1f02 b1bd 3855 e4bc 09f4 d93b
000003b0: 23ad 17bd 879d 80bd 686c 8abd ccba 11bd
000003c0: 25e3 56bc f396 b0bd bc35 97bc 7642 993c
000003d0: 055e 0dbd 316e fd3c 285e f9bc b4fd eb3c
000003e0: ea5c a4bc aa1c 893d f58e 153d 6b9a 11bc
000003f0: 53c0 403d ca7e 703b 1cb6 c23c 9903 8bbd

conv2_1.bias f4 [64]
-0.36877003 0.072713755 -0.010116598 -0.029081764 -0.08961197 -0.05236835 -0.011154867 -0.10541226
-0.05828137 -0.041081727 -0.22988161 -0.2694951 -0.00042911505 -0.013858974 0.010758044 -0.53913206
-0.027193747 -0.09754053 -0.078898884 0.03819818 0.22192605 -0.13749175 -0.16295071 -0.077336624
0.11800558 -0.14285386 0.13138592 -0.023703665 0.0822897 -0.050263 0.04384689 -0.026573695
0.014649435 0.060176563 -0.67660666 -0.05567931 -0.15195222 -0.06613771 -0.0058100326 0.15358716
-0.12363117 0.36546946 -0.01257772 -0.065754935 0.07648683 0.082615755 0.14724134 -0.13878544
0.053948674 -0.0972086 -0.013700642 0.026916655 0.32442218 0.020174904 -0.09779591 -0.026633171
-0.124967806 0.04476291 0.020308139 0.017531794 -0.14132965 -0.0035195404 -0.050457343 -0.024093907
00000000: 6dcf bcbe f3ea 943d 16c0 25bc e13c eebc
00000010: 7b86 b7bd 3280 56bd e7c2 36bc 62e2 d7bd
00000020: 72b8 6ebd 5045 28bd 1666 6bbe 43fb 89be
00000030: d9fa e0b9 c010 63bc 8242 303c 8f04 0abf
00000040: 6cc5 debc 54c3 c7bd bd95 a1bd b275 1c3d
00000050: 9540 633e a3ca 0cbe 8ddc 26be aa62 9ebd
00000060: e9ac f13d 4848 12be 088a 063e 302e c2bc
00000070: 8187 a83d 93e0 4dbd cc98 333d 14b1 d9bc
00000080: 2f04 703c b37b 763d 1836 2dbf fd0f 64bd
00000090: 5d99 1bbe 3573 87bd 1662 bebb f445 1d3e
000000a0: 5732 fdbd d01e bb3e c812 4ebc 86aa 86bd
000000b0: 21a5 9c3d 7332 a93d 6fc6 163e c51d 0ebe
000000c0: 49f9 5c3d 4d15 c7bd a878 60bc 5180 dc3c
000000d0: aa1a a63e d745 a53c 3949 c8bd cf2d dabc
000000e0: 1fef ffbd 5059 373d 415d a63c d69e 8f3c
000000f0: b8b8 10be 17a8 66bb 5cac 4ebd 9660 c5bc

conv2_2.weight f4 [32, 64, 1, 1]
0.066272825 0.13644142 -0.0039091543 0.048707265 -0.096155785 0.023889242 0.09413013 -0.05505928
0.04665523 -0.05176166 -0.061197456 0.04515755 0.12132465 0.04689508 0.022921406 0.14849386
-0.08982793 0.15831126 0.43282565 0.19400252 -0.14832525 0.03245273 -0.0671212 -0.110847905
-0.12894368 0.08416181 -0.16974172 -0.007376764 0.08831241 0.051410094 -0.07204522 0.09857165
0.31573153 0.20502786 -2.0031407 0.079355516 0.07001571 -0.035920843 0.0052434606 0.1174951
-0.030517792 0.095899396 -0.1336693 -0.24817297 0.019824985 0.074484915 -0.22099212 0.20166944
-0.017686406 0.18993492 0.14732748 0.089443006 0.08231585 -0.11211877 0.08984744 -0.018539645
0.014304759 -0.15553686 -0.05610801 0.05828394 -0.08927367 -0.1240151 -0.0039399047 0.26702935
0.013770175 0.042140834 0.33488372 -0.048580818 0.16772309 0.67742604 0.29472533 0.31191367
0.27505305 -0.2738501 0.4689738 0.109235555 -0.118636474 0.23302214 0.40609697 -1.5925473
0.13753209 0.25649104 -0.45178473 -0.062202737 0.16949242 -0.39679518 0.29110307 0.11202833
-0.18320273 -0.63952345 0.3600558 0.37022278 0.22205849 0.034567 -0.24060574 0.32031292
0.29128212 0.33645597 -1.5931809 -0.3920214 -1.2198071 0.40947625 -0.06430898 -0.01286088
0.4214494 -0.58207506 0.14766362 -0.39338914 0.11995757 -0.26194677 -0.41845375 0.4178161
0.18037267 -0.8270064 -0.34666374 0.10375958 0.5322332 0.22374931 0.32604942 -0.52198166
0.5117845 -0.018861767 0.735223 0.20900702 -0.4434733 0.22385982 -0.50334835 -0.30720514
0.07897299 -0.07729987 0.06018742 -0.050131414 0.036015328 0.14090867 -0.24822584 0.023259567
0.24604873 0.12188244 0.049915344 -0.029185908 -0.042038508 0.11366974 -0.030995386 -0.03234814
0.013386293 -0.118088156 0.06303533 0.05890542 -0.17627575 -0.027740577 0.09540958 0.17272289
-0.070180096 -0.046123173 -0.034375947 0.023409396 -0.0063907085 0.0038408225 -0.19609535 0.08860255
0.19148937 -0.3559937 0.7290609 -0.15647529 -0.01838572 -0.01049665 0.08329683 -0.08044711
-0.049342286 -0.02080347 0.1123903 0.21003348 0.01823917 0.049393386 0.06866783 0.055098016
-0.026137322 -0.04118107 -0.067010455 0.10161252 -0.05238777 0.122012466 0.105305776 -0.08027717
-0.10622297 -0.13117278 -0.062372703 0.11570296 -0.11612266 -0.34668905 0.09465747 0.24091895
0.09254114 0.020404978 0.0091454685 0.20668937 0.13042893 -0.12629153 -0.06629159 0.027761685
0.009291844 -0.04000998 -0.031674366 0.12749211 0.09386341 0.10113831 0.06503046 -0.1201988
-0.34120154 0.39311913 0.19855583 0.07242427 0.0626564 0.10189847 0.023032302 -0.060922466
0.1246282 -0.05729707 -0.12859952 -0.0884946 0.054208677 -0.19157732 0.05666294 -0.18274748
-0.09380769 -0.1280515 0.4728095 -0.13152015 0.2735688 0.01870601 0.12842605 -0.051669177
0.06693378 0.08280006 0.07061795 -0.014231668 -0.1398745 -0.02266542 -0.2512442 -0.030217318
-0.16885841 0.2377257 -0.18283388 0.02971737 0.12710883 0.30901682 -0.13005576 0.01429944
0.045199335 0.14167987 0.06836899 -0.03636859 -0.12041075 -0.3116603 -0.0046521975 -0.36826992
00000000: 0cba 873d 4db7 0b3e 5d18 80bb 4581 473d
00000010: 53ed c4bd 5fb3 c33c 4cc7 c03d d785 61bd
00000020: 8e19 3f3d 0904 54bd 2faa 7abd 20f7 383d
00000030: 0f79 f83d 0e15 403d acc5 bb3c c60e 183e
00000040: b5f7 b7bd 591c 223e 539b dd3e 99a8 463e
00000050: 93e2 17be 27ed 043d d776 89bd 3a04 e3bd
00000060: d009 04be 075d ac3d c6d0 2dbe c8b8 f1bb
00000070: 23dd b43d 6493 523d 728c 93bd efdf c93d
00000080: 90a7 a13e d3f2 513e 7533 00c0 2585 a23d
00000090: 6664 8f3d bc21 13bd 56d1 ab3b 45a1 f03d
000000a0: 7300 fabc e766 c43d 9be0 08be 0e21 7ebe
000000b0: 0268 a23c 8c8b 983d c24b 62be 6f82 4e3e
000000c0: 15e3 90bc 4d7e 423e 04dd 163e e52d b73d
000000d0: 3695 a83d 879e e5bd ef01 b83d 74e0 97bc
000000e0: 825e 6a3c 0e45 1fbe 83d1 65bd 24bb 6e3d
000000f0: 1dd5 b6bd a1fb fdbd 511a 81bb 12b8 883e
00000100: 4d9c 613c de9b 2c3d e175 ab3e aefc 46bd
00000110: 9abf 2b3e cb6b 2d3f 3de6 963e 26b3 9f3e
00000120: c1d3 8c3e 1536 8cbe 551d f03e e4b6 df3d
00000130: aef7 f2bd 5b9d 6e3e f1eb cf3e 97d8 cbbf
00000140: 36d5 0c3e cb52 833e 5450 e7be 4cc8 7ebd
00000150: 6c8f 2d3e bd28 cbbe 760b 953e 1c6f e53d
00000160: 7f99 3bbe cfb7 23bf 3c59 b83e d78d bd3e
00000170: 4d63 633e 2096 0d3d 5a61 76be 0e00 a43e
00000180: ee22 953e f543 ac3e 5aed cbbf 07b7 c8be
00000190: a422 9cbf dfa6 d13e 6db4 83bd 71b6 52bc
000001a0: 37c8 d73e df02 15bf 2235 173e 4d6a c9be
000001b0: 51ac f53d e31d 86be 923f d6be feeb d53e
000001c0: 9db3 383e b1b6 53bf e97d b1be e77f d43d
000001d0: 6f40 083f 8a1e 653e f3ef a63e 97a0 05bf
000001e0: 4f04 033f fe83 9abc 9337 3c3f f005 563e
000001f0: ef0e e3be 823b 653e 70db 00bf fe49 9dbe
00000200: 97bc a13d 654f 9ebd 1687 763d 9956 4dbd
00000210: cf84 133d 5d4a 103e ea2e 7ebe d98a be3c
00000220: 33f4 7b3e 809d f93d 0874 4c3d 4917 efbc
00000230: 9230 2cbd aecb e83d 09ea fdbc 7c7f 04bd
00000240: 2f52 5b3c 34d8 f1bd ab18 813d cf46 713d
00000250: a181 34be 3540 e3bc 1966 c33d 45de 303e
00000260: 95ba 8fbd a7eb 3cbd cbcd 0cbd 10c5 bf3c
00000270: 2669 d1bb 4fb6 7b3b 38cd 48be 4175 b53d
00000280: ca15 443e ce44 b6be bca3 3a3f 0f3b 20be
00000290: a69d 96bc 24fa 2bbc 8797 aa3d 74c1 a4bd
000002a0: 231b 4abd 0a6c aabc e32c e63d 0413 573e
000002b0: 506a 953c b850 4a3d b8a1 8c3d 75ae 613d
000002c0: f01d d6bc 7bad 28bd c73c 89bd 3a1a d03d
000002d0: 8f94 56bd ace1 f93d 8eaa d73d 5b68 a4bd
000002e0: 6e8b d9bd 2852 06be 857a 7fbd acf5 ec3d
000002f0: b8d1 edbd 3a81 b1be c7db c13d 75b3 763e
00000300: 3686 bd3d 5728 a73c e0d6 153c 61a6 533e
00000310: 298f 053e 9152 01be e3c3 87bd 796c e33c
00000320: d23c 183c 81e1 23bd fbbc 01bd 4b8d 023e
00000330: 763b c03d 9a21 cf3d b12e 853d ca2a f6bd
00000340: f8b1 aebe e946 c93e 3852 4b3e 2d53 943d
00000350: 0052 803d 25b0 d03d 3dae bc3c d689 79bd
00000360: 123d ff3d 55b0 6abd 98af 03be a83c b5bd
00000370: eb09 5e3d d82c 44be 6617 683d 2822 3bbe
00000380: 3f1e c0bd ef1f 03be 1614 f23e 38ad 06be
00000390: 3611 8c3e 593d 993c 1e82 033e 0fa3 53bd
000003a0: 9414 893d 1493 a93d 25a0 903d f12b 69bc
000003b0: 433b 0fbe d5ac b9bc 14a3 80be 4f8a f7bc
000003c0: 38e9 2cbe 5e6e 733e ce38 3bbe d871 f33c
000003d0: d128 023e 7437 9e3e 562d 05be 3348 6a3c
000003e0: f022 393d 8714 113e 0b05 8c3d 3bf7 14bd
000003f0: e999 f6bd f091 9fbe 7671 98bb e08d bcbe

conv2_2.bias f4 [32]
0.09598787 -0.04823593 -0.015955688 -0.057365276 0.032829072 -0.002121088 -0.18700048 0.06610683
-0.13549848 -0.19448511 0.047230955 0.10745713 -0.049896125 0.08284722 0.010966317 0.048687425
0.10794401 0.012736698 0.07013864 0.044081513 -0.26760793 0.05739821 0.1258272 0.015610886
-0.041388147 -0.049628634 -0.03519885 0.017454257 0.07938066 0.054771636 -0.050288565 -0.03519619
00000000: 4a95 c43d 0a93 45bd 81b5 82bc daf7 6abd
00000010: c777 063d f401 0bbb 0e7d 3fbe 0563 873d
00000020: 1dc0 0abe 1b27 47be 3f75 413d 7c12 dc3d
00000030: e15f 4cbd ceab a93d 11ac 333c 776c 473d
00000040: c011 dd3d 95ad 503c d9a4 8f3d d18e 343d
00000050: e803 89be 631a 6b3d d8d8 003e cdc4 7f3c
00000060: 9e86 29bd 6547 4bbd ab2c 10bd 3bfc 8e3c
00000070: 5492 a23d 3958 603d 62fb 4dbd e129 10bd
